…
I0425 17:18:28.304743 2045448192 net.cpp:322] The NetState phase (0) differed from the phase (1) specified by a rule in layer data
I0425 17:18:28.304780 2045448192 net.cpp:322] The NetState phase (0) differed from the phase (1) specified by a rule in layer accuracy
I0425 17:18:28.304790 2045448192 net.cpp:49] Initializing net from parameters: 
name: "VQASoftmax"
state {
  phase: TRAIN
}
layer {
  name: "data"
  type: "Data"
  top: "data"
  top: "label"
  include {
    phase: TRAIN
  }
  data_param {
    source: "VQA_train_lmdb"
    batch_size: 100
    backend: LMDB
  }
}
layer {
  name: "ip1"
  type: "InnerProduct"
  bottom: "data"
  top: "ip1"
  param {
    lr_mult: 1
    decay_mult: 1
  }
  param {
    lr_mult: 2
    decay_mult: 0
  }
  inner_product_param {
    num_output: 1000
    weight_filler {
      type: "xavier"
    }
    bias_filler {
      type: "constant"
    }
  }
}
layer {
  name: "loss"
  type: "SoftmaxWithLoss"
  bottom: "ip1"
  bottom: "label"
  top: "loss"
}
I0425 17:18:28.304903 2045448192 layer_factory.hpp:76] Creating layer data
I0425 17:18:28.312245 2045448192 net.cpp:106] Creating Layer data
I0425 17:18:28.312280 2045448192 net.cpp:411] data -> data
I0425 17:18:28.312324 2045448192 net.cpp:411] data -> label
I0425 17:18:28.313436 528384 db_lmdb.cpp:38] Opened lmdb VQA_train_lmdb
I0425 17:18:28.315999 2045448192 data_layer.cpp:41] output data size: 100,1324,1,1
I0425 17:18:28.317033 2045448192 net.cpp:150] Setting up data
I0425 17:18:28.317051 2045448192 net.cpp:157] Top shape: 100 1324 1 1 (132400)
I0425 17:18:28.317064 2045448192 net.cpp:157] Top shape: 100 (100)
I0425 17:18:28.317068 2045448192 net.cpp:165] Memory required for data: 530000
I0425 17:18:28.317085 2045448192 layer_factory.hpp:76] Creating layer ip1
I0425 17:18:28.317106 2045448192 net.cpp:106] Creating Layer ip1
I0425 17:18:28.317116 2045448192 net.cpp:454] ip1 <- data
I0425 17:18:28.317128 2045448192 net.cpp:411] ip1 -> ip1
I0425 17:18:28.317208 1064960 blocking_queue.cpp:50] Waiting for data
I0425 17:18:28.332700 2045448192 net.cpp:150] Setting up ip1
I0425 17:18:28.332726 2045448192 net.cpp:157] Top shape: 100 1000 (100000)
I0425 17:18:28.332731 2045448192 net.cpp:165] Memory required for data: 930000
I0425 17:18:28.332741 2045448192 layer_factory.hpp:76] Creating layer loss
I0425 17:18:28.332759 2045448192 net.cpp:106] Creating Layer loss
I0425 17:18:28.332764 2045448192 net.cpp:454] loss <- ip1
I0425 17:18:28.332769 2045448192 net.cpp:454] loss <- label
I0425 17:18:28.332774 2045448192 net.cpp:411] loss -> loss
…
I0425 17:18:28.333150 2045448192 net.cpp:283] Network initialization done.
I0425 17:18:28.333323 2045448192 solver.cpp:180] Creating test net (#0) specified by net file: train_val.prototxt
I0425 17:18:28.333348 2045448192 net.cpp:322] The NetState phase (1) differed from the phase (0) specified by a rule in layer data
I0425 17:18:28.333356 2045448192 net.cpp:49] Initializing net from parameters: 
name: "VQASoftmax"
state {
  phase: TEST
}
layer {
  name: "data"
  type: "Data"
  top: "data"
  top: "label"
  include {
    phase: TEST
  }
  data_param {
    source: "vqa_val_lmdb"
    batch_size: 64
    backend: LMDB
  }
}
layer {
  name: "ip1"
  type: "InnerProduct"
  bottom: "data"
  top: "ip1"
  param {
    lr_mult: 1
    decay_mult: 1
  }
  param {
    lr_mult: 2
    decay_mult: 0
  }
  inner_product_param {
    num_output: 1000
    weight_filler {
      type: "xavier"
    }
    bias_filler {
      type: "constant"
    }
  }
}
layer {
  name: "accuracy"
  type: "Accuracy"
  bottom: "ip1"
  bottom: "label"
  top: "accuracy"
  include {
    phase: TEST
  }
}
layer {
  name: "loss"
  type: "SoftmaxWithLoss"
  bottom: "ip1"
  bottom: "label"
  top: "loss"
}
I0425 17:18:28.333539 2045448192 layer_factory.hpp:76] Creating layer data
I0425 17:18:28.333750 2045448192 net.cpp:106] Creating Layer data
I0425 17:18:28.333768 2045448192 net.cpp:411] data -> data
I0425 17:18:28.333786 2045448192 net.cpp:411] data -> label
I0425 17:18:28.334560 1601536 db_lmdb.cpp:38] Opened lmdb vqa_val_lmdb
I0425 17:18:28.335623 2045448192 data_layer.cpp:41] output data size: 64,1324,1,1
I0425 17:18:28.336331 2045448192 net.cpp:150] Setting up data
I0425 17:18:28.336352 2045448192 net.cpp:157] Top shape: 64 1324 1 1 (84736)
I0425 17:18:28.336365 2045448192 net.cpp:157] Top shape: 64 (64)
I0425 17:18:28.336376 2045448192 net.cpp:165] Memory required for data: 339200
I0425 17:18:28.336387 2045448192 layer_factory.hpp:76] Creating layer label_data_1_split
I0425 17:18:28.336405 2045448192 net.cpp:106] Creating Layer label_data_1_split
I0425 17:18:28.336415 2045448192 net.cpp:454] label_data_1_split <- label
I0425 17:18:28.336427 2045448192 net.cpp:411] label_data_1_split -> label_data_1_split_0
I0425 17:18:28.336447 2045448192 net.cpp:411] label_data_1_split -> label_data_1_split_1
I0425 17:18:28.336462 2045448192 net.cpp:150] Setting up label_data_1_split
I0425 17:18:28.336469 2045448192 net.cpp:157] Top shape: 64 (64)
I0425 17:18:28.336477 2045448192 net.cpp:157] Top shape: 64 (64)
I0425 17:18:28.336510 2045448192 net.cpp:165] Memory required for data: 339712
I0425 17:18:28.336522 2045448192 layer_factory.hpp:76] Creating layer ip1
I0425 17:18:28.336544 2045448192 net.cpp:106] Creating Layer ip1
I0425 17:18:28.336555 2045448192 net.cpp:454] ip1 <- data
I0425 17:18:28.336568 2045448192 net.cpp:411] ip1 -> ip1
I0425 17:18:28.355634 2045448192 net.cpp:150] Setting up ip1
I0425 17:18:28.355659 2045448192 net.cpp:157] Top shape: 64 1000 (64000)
I0425 17:18:28.355665 2045448192 net.cpp:165] Memory required for data: 595712
I0425 17:18:28.355677 2045448192 layer_factory.hpp:76] Creating layer ip1_ip1_0_split
I0425 17:18:28.355687 2045448192 net.cpp:106] Creating Layer ip1_ip1_0_split
I0425 17:18:28.355693 2045448192 net.cpp:454] ip1_ip1_0_split <- ip1
I0425 17:18:28.355700 2045448192 net.cpp:411] ip1_ip1_0_split -> ip1_ip1_0_split_0
I0425 17:18:28.355708 2045448192 net.cpp:411] ip1_ip1_0_split -> ip1_ip1_0_split_1
I0425 17:18:28.355718 2045448192 net.cpp:150] Setting up ip1_ip1_0_split
I0425 17:18:28.355722 2045448192 net.cpp:157] Top shape: 64 1000 (64000)
I0425 17:18:28.355727 2045448192 net.cpp:157] Top shape: 64 1000 (64000)
I0425 17:18:28.355731 2045448192 net.cpp:165] Memory required for data: 1107712
I0425 17:18:28.355736 2045448192 layer_factory.hpp:76] Creating layer accuracy
I0425 17:18:28.355751 2045448192 net.cpp:106] Creating Layer accuracy
I0425 17:18:28.355756 2045448192 net.cpp:454] accuracy <- ip1_ip1_0_split_0
I0425 17:18:28.355762 2045448192 net.cpp:454] accuracy <- label_data_1_split_0
I0425 17:18:28.355768 2045448192 net.cpp:411] accuracy -> accuracy
…
